pt_models/1000_40_5_5_3_49_gauss_xtanh_u_f_iVAE_20/_ckpt_final.pth (torch, 240439 bytes, 72 tensors)

logl.fc.0.weight f4 [50, 40]
0.099350296 -0.24273674 0.23562504 -0.022784578 0.08348303 0.22779638 -0.069208525 -0.30489102
0.04545952 -0.27118927 0.18165818 0.090425685 -0.11634627 0.06945045 0.06186729 -0.038381007
0.114656344 0.1693791 -0.21066242 0.08701233 0.11094422 0.10530364 -0.07049127 -0.22454177
-0.0036106666 -0.14962684 -0.21013722 -0.047193825 0.19565482 0.16134617 -0.12551709 0.02484191
-0.17697723 0.15485485 -0.26699764 -0.18495956 -0.10631871 0.12907134 -0.22538662 -0.20865647
-0.115721576 -0.32063568 0.2557284 -0.26669675 -0.17482589 0.088892706 -0.00014595875 -0.16853374
-0.107667126 -0.05193591 0.23278277 -0.33113882 -0.37436545 0.09027609 0.12923588 -0.051950328
0.2488207 0.026566567 0.05293717 -0.263904 0.07689754 0.042834368 -0.17850395 0.054370448
-0.12706119 -0.1279747 0.32765257 0.19584158 -0.23058124 0.06319411 0.14894153 -0.21432284
0.116585635 -0.37463742 0.106776066 0.022302456 0.18796377 0.16171493 0.21010976 -0.018845534
0.051408682 -0.092906125 0.20900047 0.17311735 0.06919164 0.06041069 -0.07456276 -0.24722923
0.07107897 -0.31998655 -0.22735776 0.02890319 -0.18246068 0.19841531 -0.07040936 0.1575188
0.29191568 0.3073756 0.19061588 -0.25365058 -0.07518088 -0.22853462 -0.10810645 -0.071445234
0.25014547 0.109483875 0.2999828 0.36508915 -0.04161824 0.120430425 0.071001545 0.0012100869
-0.31613952 -0.037563793 -0.26072156 -0.04716867 -0.023262663 -0.22511178 -0.15775517 0.303716
-0.20098872 0.21716836 -0.13447964 -0.074014716 -0.04311136 0.36704475 0.07391768 0.049579017
-0.016671566 0.039618757 0.040134102 0.13680464 0.2790094 0.1696401 0.102361314 0.04422819
0.054984927 -0.01563575 -0.102864645 0.132271 -0.009258463 -0.0044693523 0.096502714 -0.13632514
-0.15687035 0.016480308 0.17152637 -0.019964257 0.27461106 0.03446474 0.15009935 -0.22848319
0.11699141 -0.06414869 0.29874155 0.09190723 -0.021566026 0.18412425 -0.019911984 -0.26211992
0.26580563 0.08106165 -0.07093687 0.13301449 0.3025994 0.26035103 -0.08869061 -0.039998453
0.24728663 0.06422914 0.026113534 -0.30299014 -0.26302493 -0.13405354 0.22527815 0.03062213
-0.124072924 -0.16244413 0.15294227 0.04245435 -0.21002516 -0.20909531 0.1082618 -0.06049759
0.28368866 -0.2366956 -0.22764096 -0.22120556 -0.062380943 0.31365272 0.18516345 0.21342558
0.0857089 -0.062041793 -0.2167562 0.26765656 0.04471429 0.18261603 0.043603487 0.005638868
-0.06984726 -0.087713346 -0.10809013 -0.09226011 0.23673904 -0.056806643 -0.13607739 -0.26261294
0.22716193 0.04575575 0.1600602 0.14174782 -0.2397149 -0.15138637 -0.00667518 -0.26552755
-0.27436024 -0.13268934 0.09971718 -0.038478266 -0.14310144 -0.014338061 -0.05999058 0.07232251
-0.121581286 0.29226598 0.056741107 -0.1625883 0.13111043 -0.015624262 0.038928233 -0.19673415
0.25021708 0.13795944 0.23544808 -0.25742453 -0.16320023 -0.068922006 -0.03233654 -0.09765314
-0.12769787 0.0015701823 -0.07220919 -0.10170992 0.0468307 -0.21208893 0.3407251 0.13354062
0.038889244 0.19797261 0.18744725 -0.05004505 -0.0099005895 0.14103924 -0.23348856 -0.079850584
00000000: 2b78 cb3d fb8f 78be b147 713e b9a6 babc
00000010: 27f9 aa3d 7443 693e 33bd 8dbd ad1a 9cbe
00000020: c333 3a3d 52d9 8abe 9a04 3a3e 1a31 b93d
00000030: f446 eebd 0a3c 8e3d 8e68 7d3d 6735 1dbd
00000040: f2d0 ea3d b771 2d3e e4b7 57be 8533 b23d
00000050: b936 e33d 6fa9 d73d ba5d 90bd 47ee 65be
00000060: efa0 6cbb c737 19be 362e 57be 504e 41bd
00000070: bd59 483e ee37 253e 8d87 00be 4381 cb3c
00000080: 8539 35be 4592 1e3e eab3 88be 0a66 3dbe
00000090: a0bd d9bd 472b 043e c0cb 66be 0baa 55be
000000a0: 6fff ecbd 5c2a a4be d5ee 823e 7a8c 88be
000000b0: 8f05 33be 610d b63d 810c 19b9 1c94 2cbe
000000c0: 9580 dcbd c0ba 54bd 9b5e 6e3e 078b a9be
000000d0: d4ac bfbe ace2 b83d 6956 043e dec9 54bd
000000e0: dbca 7e3e 21a2 d93c a5d4 583d 6d1e 87be
000000f0: 757c 9d3d 1773 2f3d bdc9 36be 8cb3 5e3d
00000100: 541c 02be cd0b 03be 14c2 a73e b28a 483e
00000110: 7d1d 6cbe ea6b 813d 2184 183e 7277 5bbe
00000120: 73c4 ee3d 7ad0 bfbe 69ad da3d a4b3 b63c
00000130: 9379 403e 9998 253e 0327 573e f361 9abc
00000140: e991 523d 9145 bebd 3804 563e ad45 313e
00000150: 59b4 8d3d 3371 773d 5cb4 98bd a929 7dbe
00000160: da91 913d 47d5 a3be 79d0 68be 62c6 ec3c
00000170: f9d6 3abe 622d 4b3e c832 90bd 9c4c 213e
00000180: f975 953e 5660 9d3e cf30 433e 7dde 81be
00000190: 6ff8 99bd fb04 6abe ea66 ddbd e151 92bd
000001a0: 1113 803e 1539 e03d 5897 993e f7ec ba3e
000001b0: e377 2abd 3aa4 f63d 4269 913d c79b 9e3a
000001c0: 0add a1be 7edc 19bd 4c7d 85be ef33 41bd
000001d0: 5791 bebc b483 66be 928a 21be aa80 9b3e
000001e0: fdcf 4dbe 6261 5e3e 08b5 09be 0795 97bd
000001f0: 8a95 30bd 4aed bb3e 2762 973d 5e13 4b3d
00000200: cf92 88bc 4747 223d a863 243d 8416 0c3e
00000210: 52da 8e3e 22b6 2d3e cfa2 d13d 9e28 353d
00000220: e037 613d 8b16 80bc b3aa d2bd 0d72 073e
00000230: cfb0 17bc a573 92bb 37a3 c53d d198 0bbe
00000240: 9fa2 20be b601 873c 9ca4 2f3e 158c a3bc
00000250: d299 8c3e e62a 0d3d a5b3 193e 7ff7 69be
00000260: 3199 ef3d 6360 83bd a7f4 983e dc39 bc3d
00000270: 3cab b0bc 118b 3c3e 751e a3bc 9534 86be
00000280: ad17 883e a603 a63d 5a47 91bd f334 083e
00000290: 4fee 9a3e bb4c 853e 6ca3 b5bd 6bd5 23bd
000002a0: b538 7d3e 918a 833d 0dec d53c 8621 9bbe
000002b0: 34ab 86be 5545 09be 51af 663e 43db fa3c
000002c0: f219 febd c157 26be e69c 1c3e 9de4 2d3d
000002d0: d610 57be 151d 56be 5db8 dd3d 52cc 77bd
000002e0: a43f 913e 5560 72be b61a 69be b683 62be
000002f0: 2983 7fbd 1797 a03e 7d9b 3d3e 3c8c 5a3e
00000300: 2688 af3d 891f 7ebd 56f5 5dbe 480a 893e
00000310: 5526 373d b2ff 3a3e 9299 323d 41c6 b83b
00000320: 150c 8fbd 0ea3 b3bd 5c5e ddbd def2 bcbd
00000330: b86b 723e 15ae 68bd df57 0bbe 3475 86be
00000340: 239d 683e 626a 3b3d d2e6 233e 5726 113e
00000350: d377 75be 0705 1bbe 78bb dabb 3af3 87be
00000360: f278 8cbe b7df 07be 8538 cc3d 639b 1dbd
00000370: 2f89 12be 30ea 6abc afb8 75bd d31d 943d
00000380: 9cff f8bd e3a3 953e 5d69 683d 8c7d 26be
00000390: d041 063e e8fc 7fbc 3673 1f3d ad74 49be
000003a0: 741c 803e 3d45 0d3e 4d19 713e 26cd 83be
000003b0: f61d 27be fb26 8dbd 5273 04bd 5ffe c7bd
000003c0: 3bc3 02be 93ce cd3a 69e2 93bd 4a4d d0bd
000003d0: 8cd1 3f3d d72d 59be 8573 ae3e dfbe 083e
000003e0: 544a 1f3d 55b9 4a3e 2cf2 3f3e 0afc 4cbd
000003f0: 1536 22bc 976c 103e a017 6fbe b488 a3bd

logl.fc.0.bias f4 [50]
-0.12438394 0.16770212 0.22249816 0.2608743 0.057285838 0.23667458 -0.06289784 0.12932998
-0.119477175 0.10288758 0.029200828 0.016725972 0.10050333 -0.17102598 -0.06609928 -0.031925973
0.011065525 -0.1302823 0.13252136 -0.06542541 0.0601034 -0.042998355 0.033564534 0.19826952
0.106059216 -0.04338133 -0.04614725 -0.011071567 -0.00011144356 0.1381515 0.07272393 0.2572392
0.062087182 -0.0063608075 0.20968524 0.11111873 -0.046951406 0.25207442 0.1877764 0.05220829
-0.035564393 -0.08820975 -0.11766133 0.0857555 0.13231444 -0.07595875 -0.011941988 0.023907166
-0.0074969674 0.21863279
00000000: 02bd febd 1bba 2b3e 8fd6 633e 5191 853e
00000010: 8ea4 6a3d d25a 723e 95d0 80bd 146f 043e
00000020: 73b0 f4bd b9b6 d23d 9336 ef3c e804 893c
00000030: b1d4 cd3d 6f21 2fbe 0f5f 87bd cfc4 02bd
00000040: 2d4c 353c b968 05be aeb3 073e c2fd 85bd
00000050: fc2e 763d 0b1f 30bd f77a 093d 2a07 4b3e
00000060: 9335 d93d 9fb0 31bd e604 3dbd 8565 35bc
00000070: ceb6 e9b8 9677 0d3e 49f0 943d dbb4 833e
00000080: 214f 7e3d 526e d0bb bab7 563e 3792 e33d
00000090: 1e50 40bd e60f 813e 7548 403e 5cd8 553d
000000a0: f8ab 11bd 50a7 b4bd 6cf8 f0bd 94a0 af3d
000000b0: 707d 073e 4390 9bbd 54a8 43bc f6d8 c33c
000000c0: 1fa9 f5bb 46e1 5f3e

logl.fc.1.weight f4 [50, 50]
0.06450406 -0.10311684 0.048261724 -0.17320627 0.17046684 0.021577155 -0.18774244 0.014153141
0.08329867 0.19615327 0.108234815 -0.32695913 -0.24431577 0.09574187 0.015860563 -0.16954078
0.109897934 0.014747714 -0.022932785 0.05218152 -0.1422682 0.12607929 0.044754226 0.17576738
-0.14839515 0.042596202 0.015341511 0.02687112 -0.10318704 0.14020118 0.16149704 0.09394831
0.27819395 0.11830244 -0.027105436 0.0066209952 0.17025042 -0.033721097 0.035312887 -0.18560143
-0.141542 -0.28112912 -0.2790438 -0.18414253 -0.076686844 -0.024473209 -0.08764596 0.12239074
-0.12207517 -0.28367853 -0.22013925 0.19543059 0.10122603 0.04544303 -0.025613189 0.12762348
-0.24483685 -0.017376972 -0.17684329 -0.10289736 -0.04497645 0.06761632 -0.085831754 0.01670864
0.05189736 -0.004489593 -0.08071081 0.21106319 -0.2240805 0.10701603 0.096757144 0.032952797
-0.17537819 0.07916357 -0.0030593423 0.15389706 0.0098084835 -0.119175695 -0.055425353 0.059420936
-0.13047731 0.12115785 0.21140274 0.15893874 -0.25437698 0.17721203 -0.0014092699 0.12211389
0.25022176 0.09220427 0.04466335 0.002150897 0.2530637 -0.23916093 -0.11333367 0.17646706
-0.11526023 0.21560353 0.24560148 -0.22692578 -0.032659724 0.14742267 -0.035274114 0.060321238
-0.10529934 0.12462711 -0.06654463 -0.04003555 0.052844655 0.11735557 -0.010777448 0.14750512
0.2143649 -0.03675931 -0.013702349 -0.12933865 -0.032343607 -0.18079452 0.22233379 0.1614751
0.29389054 0.092943214 0.089822575 0.29024866 0.20518221 -0.12179115 -0.026586244 0.10028458
0.02436982 0.063465826 0.15012261 0.047071893 -0.09287017 0.18860264 -0.06738031 0.08788982
0.2122941 0.06905753 0.034382045 0.26037925 0.070994385 -0.12999962 -0.09578152 0.19686395
0.060559608 0.12844315 0.35136673 -0.04898465 0.08159142 -0.063004464 0.17401162 -0.17808467
0.12455982 0.14129567 0.24302375 0.18857259 -0.0027971538 0.048206884 -0.052742377 -0.3045804
-0.15917891 0.15465327 0.033515785 0.13595918 -0.042511333 -0.092108615 -0.08412934 -0.097573146
-0.22526094 0.073284976 0.030833405 0.26076645 0.22374867 0.17430186 0.10228034 0.13102368
0.25853416 0.097041525 0.2792432 -0.072994635 -0.059926856 0.16637449 0.0045836936 0.23449804
-0.14812037 -0.28452381 0.1886246 0.121482655 -0.20815656 -0.16674618 -0.022448437 0.16854753
0.23143962 0.21411513 -0.11313494 0.2709226 0.31663916 -0.08770232 -0.095850825 -0.111918345
0.17871149 0.09054947 0.2911868 -0.21836948 0.04401448 0.14264758 -0.11035677 -0.054084927
-0.025214095 0.08458218 -0.055376448 0.31304222 0.12127 -0.21459608 -0.10264514 -0.24542262
-0.235877 0.13013239 -0.14333695 0.2823862 0.27185708 0.022653325 0.018428134 -0.092966594
0.23326445 0.104426734 0.26828787 0.07695663 -0.10255516 -0.06871205 0.0037720592 0.0877414
0.06556739 0.35062867 0.0022169633 0.005342001 -0.19999857 0.05001848 0.18142174 -0.013742273
-0.14527357 -0.09146238 0.2158325 -0.13863504 0.050848916 0.24909854 0.019600602 -0.19259794
0.27074277 0.11830549 -0.29208535 -0.111627065 -0.06457229 -0.026098896 -0.28161123 0.108254865
00000000: b41a 843d ec2e d3bd 16ae 453d fc5c 31be
00000010: dc8e 2e3e 93c2 b03c 8e3f 40be 93e2 673c
00000020: 7e98 aa3d 67dc 483e 37aa dd3d 3067 a7be
00000030: ea2d 7abe 5014 c43d 03ee 813c 199c 2dbe
00000040: 2b12 e13d 65a0 713c 89dd bbbc 4abc 553d
00000050: c1ae 11be ee1a 013e 3550 373d 5dfc 333e
00000060: e6f4 17be 5b79 2e3d f65a 7b3c d320 dc3c
00000070: ba53 d3bd e690 0f3e 7b5f 253e f967 c03d
00000080: 706f 8e3e 8d48 f23d 380c debc eff4 d83b
00000090: 2056 2e3e 221f 0abd 3fa4 103d 4d0e 3ebe
000000a0: 63f0 10be 28f0 8fbe d4de 8ebe dc8f 3cbe
000000b0: fe0d 9dbd 0a7c c8bc ba7f b3bd ffa7 fa3d
000000c0: 8c02 fabd 503e 91be 2f6c 61be f51e 483e
000000d0: 984f cf3d 7822 3a3d c0d2 d1bc bbaf 023e
000000e0: 83b6 7abe 275a 8ebc 6816 35be dabb d2bd
000000f0: 3a39 38bd 6d7a 8a3d 8fc8 afbd 8fe0 883c
00000100: 5392 543d 701d 93bb b64b a5bd f320 583e
00000110: 5c75 65be 382b db3d 9c28 c63d 83f9 063d
00000120: 5796 33be 8320 a23d 3f7f 48bb 3197 1d3e
00000130: c3b3 203c 6312 f4bd b205 63bd 5e63 733d
00000140: d89b 05be 9b21 f83d f679 583e d6c0 223e
00000150: b33d 82be 1277 353e 40b7 b8ba d916 fa3d
00000160: 111d 803e 98d5 bc3d ebf0 363d 10f6 0c3b
00000170: 9191 813e 9ae6 74be 7c1b e8bd c8b3 343e
00000180: 8e0d ecbd 2cc7 5c3e f47e 7b3e 3b5f 68be
00000190: 34c6 05bd f8f5 163e 977b 10bd 6713 773d
000001a0: 2ea7 d7bd 803c ff3d 8d48 88bd 51fc 23bd
000001b0: a373 583d 1e58 f03d e593 30bc 950b 173e
000001c0: 7982 5b3e ee90 16bd d17f 60bc 5a71 04be
000001d0: bb7a 04bd 3322 39be 78ab 633e bb59 253e
000001e0: d278 963e 0359 be3d e6f4 b73d 799b 943e
000001f0: 491b 523e a36d f9bd 65cb d9bc 0062 cd3d
00000200: 37a3 c73c 5ffa 813d beb9 193e 75ce 403d
00000210: b732 bebd 0d21 413e b0fe 89bd 94ff b33d
00000220: a063 593e 096e 8d3d 30d4 0c3d 6e50 853e
00000230: 8165 913d 9f1e 05be 1a29 c4bd b496 493e
00000240: 5a0d 783d 9a86 033e 57e6 b33e 21a4 48bd
00000250: 6719 a73d 7c08 81bd 1a30 323e d45b 36be
00000260: 3819 ff3d d0af 103e 38db 783e 2c19 413e
00000270: 7450 37bb 9574 453d 6408 58bd f6f1 9bbe
00000280: ccff 22be 6d5d 1e3e d947 093d e238 0b3e
00000290: 5d20 2ebd 71a3 bcbd 014c acbd 6ed4 c7bd
000002a0: ceaa 66be 6f16 963d 5696 fc3c 2e83 853e
000002b0: 5f1e 653e 307c 323e 5b78 d13d 122b 063e
000002c0: 975e 843e b5bd c63d f7f8 8e3e 367e 95bd
000002d0: dd75 75bd 135e 2a3e cf32 963b 4120 703e
000002e0: deac 17be 1bad 91be cf26 413e e6cb f83d
000002f0: fe26 55be 83bf 2abe c9e5 b7bc b997 2c3e
00000300: 82fe 6c3e ff40 5b3e 4bb3 e7bd 5eb6 8a3e
00000310: 871e a23e 469d b3bd 704d c4bd 7235 e5bd
00000320: 2500 373e 0072 b93d 7016 953e 409c 5fbe
00000330: 8748 343d 3512 123e bb02 e2bd 2888 5dbd
00000340: ca8d cebc 6c39 ad3d 6ad2 62bd 1247 a03e
00000350: 685c f83d 13bf 5bbe 9d37 d2bd 1150 7bbe
00000360: be89 71be 6d41 053e ecc6 12be ed94 903e
00000370: da30 8b3e 7793 b93c 99f6 963c 4565 bebd
00000380: e0dc 6e3e afdd d53d 075d 893e 709b 9d3d
00000390: 7108 d2bd e7b8 8cbd a734 773b c3b1 b33d
000003a0: 3248 863d 9a85 b33e 794a 113b f40b af3b
000003b0: 6dcc 4cbe 2de0 4c3d 9fc6 393e 4527 61bc
000003c0: 98c2 14be a150 bbbd 3203 5d3e 58f6 0dbe
000003d0: f446 503d b013 7f3e 7191 a03c 6538 45be
000003e0: cc9e 8a3e 264a f23d 368c 95be bb9c e4bd
000003f0: 7a3e 84bd 5acd d5bc 592f 90be bab4 dd3d

logl.fc.1.bias f4 [50]
0.059832443 -0.14575022 0.24059774 0.13788803 0.14113888 -0.053526387 0.17380498 0.054677147
0.022002354 0.046783283 0.035944678 0.01021614 0.07634415 0.22269446 -0.08649814 0.10407601
-0.0066690664 0.06036748 0.19968678 -0.13450097 -0.07996539 -0.08713047 0.30866987 0.08369354
-0.06675196 0.08160528 -0.088020265 0.047434397 -0.009784611 0.0477359 0.10917043 0.11243514
0.11279616 -0.08775206 0.012303435 0.31485894 -0.1525719 -0.12216672 0.16137072 0.12635061
0.2672677 0.013969035 0.012685479 -0.044087745 0.0024477977 0.08728628 -0.009143645 -0.119197026
0.026389755 0.11145444
00000000: dd12 753d 8c3f 15be 415f 763e 8532 0d3e
00000010: b686 103e 7c3e 5bbd eff9 313e 25f5 5f3d
00000020: 483e b43c d49f 3f3d ba3a 133d 9961 273c
00000030: 525a 9c3d 040a 643e f025 b1bd ce25 d53d
00000040: 2f88 dabb e443 773d b17a 4c3e 9fba 09be
00000050: e5c4 a3bd 7671 b2bd fa09 9e3e 8567 ab3d
00000060: 40b5 88bd ab20 a73d f843 b4bd 924a 423d
00000070: a24f 20bc b886 433d bf94 df3d 6544 e63d
00000080: ac01 e73d 5ab7 b3bd 5994 493c 3135 a13e
00000090: cf3b 1cbe 8c32 fabd 5e3e 253e 0e62 013e
000000a0: 50d7 883e 61de 643c c1d6 4f3c 5a95 34bd
000000b0: 3b6b 203b 26c3 b23d 3acf 15bc 921d f4bd
000000c0: 542f d83c 3a42 e43d

logl.fc.2.weight f4 [5, 50]
-0.1685066 -0.23860887 0.028494123 0.30915967 0.12907766 0.14981033 -0.18364224 -0.38033888
0.14475112 0.36972323 0.2885664 0.00084115996 0.24333997 0.2154983 0.013036198 -0.29889092
-0.12638198 0.46418938 -0.15718348 -0.36812934 0.17054518 -0.008435312 0.060057405 0.3917998
-0.10122368 0.23784487 -0.036861036 -0.32681328 0.027941387 -0.21591277 0.07718238 -0.22608115
0.20411018 0.2911625 -0.4356989 0.17838986 -0.17174187 -0.18322703 -0.0726939 -0.2908163
0.022674639 -0.24566408 0.33351108 0.31589344 0.34188414 0.3594969 -0.060855635 0.35871306
-0.026062923 0.1911891 0.11153584 -0.18824922 -0.023077134 -0.32943678 -0.19741412 -0.29059866
-0.39691234 -0.13063231 0.40411046 0.20572323 0.037026837 0.10357708 0.32562023 0.34523928
0.35464028 0.3961081 0.18037441 -0.17576088 -0.28955638 -0.22334976 -0.2593496 0.08038875
0.12527959 0.0034406276 -0.33061162 0.32276276 -0.12436559 0.33079 -0.19966485 0.17197789
-0.16598244 0.12866573 -0.24177001 0.13233556 0.035688836 0.155135 -0.048963353 0.2897315
0.15782323 0.2971678 0.0005643844 -0.3712407 -0.07587843 -0.4438253 0.32577872 0.1397144
-0.2330434 -0.15885788 0.014124504 0.22150779 0.19769019 -0.08403819 -0.078684576 -0.34860492
-0.2529158 0.27895394 -0.19733375 -0.3059486 0.20646316 -0.03575542 -0.042542238 0.14358528
0.124266505 -0.23070957 -0.1253384 0.12020668 -0.3373672 0.009532524 -0.3374161 -0.18570858
-0.041835792 0.2544243 -0.26581305 -0.100391254 -0.29944667 -0.29369813 0.19604787 -0.34016928
0.10459697 -0.3836667 0.174346 0.19558299 -0.046127867 0.35848576 0.21299115 -0.1691579
-0.20200677 0.25833082 -0.09442762 0.14622591 -0.17664453 -0.10537656 -0.24873433 0.15915914
-0.08867756 0.131333 -0.0744316 0.35387266 0.27414832 -0.16026929 0.015498183 0.0052160737
-0.2808802 -0.1001008 -0.07762421 0.1885642 -0.28722972 -0.21600963 0.11520909 0.27783966
0.09353123 0.08624822 -0.121555574 -0.19669476 0.21391279 -0.25852364 0.00048672777 -0.28621125
-0.2911619 0.3546092 -0.009534614 -0.32760292 -0.32342303 -0.019735921 0.19106098 -0.12186809
0.35665563 -0.18727678 -0.29078853 -0.2922665 -0.22274731 0.04368308 -0.29482576 0.18066433
-0.4399398 -0.45794386 0.34655058 0.11069417 -0.1894015 -0.0045084013 -0.18082951 0.15361847
0.10664669 -0.26975688 0.02004696 -0.06568183 -0.17597632 0.18139987 -0.35587412 -0.095994525
-0.20333987 -0.23291746 0.09178002 -0.086406365 -0.27518523 0.15135518 -0.029793017 0.11533161
0.19094105 0.35947078 -0.31711614 -0.11544113 -0.064091764 -0.16125083 -0.077260055 -0.23777732
-0.3995257 0.2545715 0.034485344 0.21207996 -0.15857871 -0.026916342 0.18854862 0.24100558
-0.10676647 -0.32137802 -0.27051312 0.18121347 -0.40886027 0.40496275 0.2767335 0.33322906
0.1816363 -0.06684806 -0.22773778 0.065692715 -0.17101865 0.29775178 0.4610976 0.38956773
0.20808555 0.00973996 0.1505488 0.27448282 0.001253224 -0.086486466 0.097871065 -0.26286778
-0.1264454 -0.44890517
00000000: ff8c 2cbe e255 74be 826c e93c 2d4a 9e3e
00000010: ef2c 043e e167 193e b60c 3cbe c7bb c2be
00000020: a339 143e 5d4c bd3e fabe 933e 4a81 5c3a
00000030: 1d2e 793e 96ab 5c3e c795 553c 3b08 99be
00000040: 476a 01be 3baa ed3e b5f4 20be 737b bcbe
00000050: 65a3 2e3e 4334 0abc c1fe 753d fc99 c83e
00000060: 5c4e cfbd 9b8d 733e 99fb 16bd 1254 a7be
00000070: 56e5 e43c 3d18 5dbe cc11 9e3d d181 67be
00000080: 4202 513e 4013 953e ed13 dfbe d5ab 363e
00000090: 1add 2fbe de9f 3bbe 8ae0 94bd e0e5 94be
000000a0: 2ac0 b93c 5d8f 7bbe f7c1 aa3e c9bc a13e
000000b0: 700b af3e fa0f b83e c243 79bd 3da9 b73e
000000c0: e981 d5bc 13c7 433e e76c e43d 67c4 40be
000000d0: 420c bdbc f0ab a8be ed26 4abe 59c9 94be
000000e0: 1838 cbbe 7ac4 05be 91e7 ce3e 1ca9 523e
000000f0: 74a9 173d 3820 d43d b2b7 a63e 34c3 b03e
00000100: 6993 b53e aece ca3e 12b4 383e a9fa 33be
00000110: bc40 94be cdb5 64be 79c9 84be dba2 a43d
00000120: 4b49 003e 277c 613b ed45 a9be 2941 a53e
00000130: 63b3 febd 4f5d a93e f174 4cbe f91a 303e
00000140: 4df7 29be f3c0 033e 8f92 77be f982 073e
00000150: 752e 123d b6db 1e3e cc8d 48bd b057 943e
00000160: 6a9c 213e 6126 983e 32f3 133a 4313 bebe
00000170: 2666 9bbd 123d e3be 78cc a63e 4b11 0f3e
00000180: eea2 6ebe a4ab 22be 776a 673c f0d2 623e
00000190: 4c6f 4a3e 371c acbd 6125 a1bd 587c b2be
000001a0: 2e7e 81be 0dd3 8e3e dc11 4abe 4ba5 9cbe
000001b0: 146b 533e 4674 12bd c540 2ebd 0508 133e
000001c0: 707f fe3d 213f 6cbe b658 00be eb2e f63d
000001d0: 65bb acbe 4e2e 1c3c cec1 acbe 642a 3ebe
000001e0: 025c 2bbd e743 823e a618 88be ee99 cdbd
000001f0: 1351 99be 9a5f 96be c6c0 483e ab2a aebe
00000200: f036 d63d f66f c4be c287 323e e846 483e
00000210: 93f0 3cbd 728b b73e 5a1a 5a3e bb37 2dbe
00000220: ddda 4ebe f043 843e 4563 c1bd 3fbc 153e
00000230: 4ee2 34be aacf d7bd 36b4 7ebe 9dfa 223e
00000240: 959c b5bd 287c 063e 986f 98bd cc2e b53e
00000250: 2b5d 8c3e a21d 24be 17ec 7d3c 99eb aa3b
00000260: 88cf 8fbe a601 cdbd 71f9 9ebd f916 413e
00000270: c60f 93be a131 5dbe bef2 eb3d 0041 8e3e
00000280: 4d8d bf3d e8a2 b03d 21f2 f8bd 5a6a 49be
00000290: f40b 5b3e 365d 84be 7f2f ff39 488a 92be
000002a0: 2c13 95be 568f b53e 1237 1cbc 92bb a7be
000002b0: b497 a5be 3aad a1bc 7da5 433e fa95 f9bd
000002c0: 919b b63e 7cc5 3fbe 3ce2 94be f4a3 95be
000002d0: df17 64be 07ed 323d 67f3 96be 1200 393e
000002e0: ca3f e1be 9e77 eabe 146f b13e a0b3 e23d
000002f0: 78f2 41be 36bb 93bb 5f2b 39be 294e 1d3e
00000300: 9469 da3d 931d 8abe 8639 a43c 3284 86bd
00000310: 2333 34be e3c0 393e 2235 b6be c798 c4bd
00000320: 5438 50be ea81 6ebe 2af7 bb3d d2f5 b0bd
00000330: 14e5 8cbe dafc 1a3e 7c10 f4bc fb32 ec3d
00000340: 0d86 433e 8e0c b83e 0c5d a2be 666c ecbd
00000350: 8b42 83bd f01e 25be 853a 9ebd e67b 73be
00000360: a28e ccbe 3257 823e 8140 0d3d 7d2b 593e
00000370: 7562 22be a97f dcbc e412 413e 2bca 763e
00000380: 61a8 dabd a98b a4be b280 8abe 0690 393e
00000390: 2256 d1be 4757 cf3e 03b0 8d3e 009d aa3e
000003a0: defe 393e a3e7 88bd 1834 69be e789 863d
000003b0: 831f 2fbe ec72 983e fc14 ec3e 6c75 c73e
000003c0: 6114 553e 5a94 1f3c 7729 1a3e 0389 8c3e
000003d0: 3843 a43a d11f b1bd a070 c83d 9b96 86be
000003e0: e77a 01be e6d6 e5be

logl.fc.2.bias f4 [5]
0.058685593 0.11261959 -0.14731137 0.006376732 0.121776685
00000000: 4e60 703d 19a5 e63d cbd8 16be e8f3 d03b
00000010: 0e66 f93d

f.fc.0.weight f4 [50, 5]
0.19586283 -0.06629722 0.18168482 -0.24749514 0.20403348 0.059609726 0.13150519 0.17106807
0.18445058 -0.2267535 0.019207487 0.27495232 -0.08642898 -0.26066864 -0.2958681 0.101302125
0.16602002 0.22801016 0.17282572 -0.106487244 0.11855763 -0.28620976 0.18904422 0.0661642
0.054496396 -0.10533007 -0.22092965 -0.044133645 0.12267439 -0.14988944 0.19808976 -0.11748293
0.08686163 -0.17462316 0.13903508 -0.030241882 -0.22943035 -0.043407723 0.037647266 -0.044890705
-0.21964723 0.31683812 0.28463322 0.22520667 0.18261103 0.12661998 0.33411643 0.06275665
0.0031214298 0.26882896 0.20869333 -0.2408663 0.21091877 -0.123037905 -0.1718626 0.08867608
-0.17951675 0.2719743 0.11163836 0.2635242 -0.099162094 -0.12142956 -0.21149401 -0.15448973
-0.25970408 0.056664404 0.17923845 0.083456405 0.028609077 -0.0058917697 -0.28344256 -0.11212128
-0.13090824 0.039884977 -0.23923172 0.1083294 0.16326016 0.21251331 -0.0900347 -0.20591408
0.17265148 0.04319731 -0.09772467 -0.14666319 0.17571744 0.017113753 0.29374233 0.18506764
0.22292107 0.2447157 0.08991015 0.020733278 -0.08863405 -0.087696515 -0.4212791 0.11280851
-0.2329388 -0.11761664 0.25136954 -0.09979353 -0.31670514 -0.18125674 0.032049783 -0.10703899
-0.19819713 -0.07344196 0.042533156 -0.026514355 0.16234416 -0.3319039 -0.15612733 -0.035574887
-0.17495598 -0.18788558 -0.29315436 0.11087451 -0.26939335 -0.067336895 -0.07256945 0.2951367
-0.0003273477 -0.29174122 -0.15466113 0.21324393 -0.15731731 0.22540598 0.2911755 0.1684341
-0.26685557 -0.04343244 -0.1498583 -0.10613932 0.13800615 0.26506832 0.20415582 -0.27851883
0.14932385 -0.07134142 0.1678232 -0.016557693 -0.20197715 -0.11523703 0.109734416 0.004079113
0.059597436 0.40583798 -0.037624396 -0.074677154 -0.060274582 -0.3136615 0.13964751 -0.25279897
-0.19421457 -0.22191037 -0.025761155 -0.28079826 0.19679293 -0.11612392 0.021401564 -0.17578004
0.120887086 0.103607446 0.15573207 -0.2826434 -0.27023172 -0.06543572 -0.07291562 -0.30948606
-0.26607704 -0.0019752746 -0.047297057 -0.21475902 0.20936781 0.084801845 -0.23297127 0.06789504
0.3077868 0.23683931 -0.008850778 0.3258143 0.20519295 -0.39851668 -0.052272607 -0.20752226
0.14341998 -0.33567306 -0.08747976 0.27181208 -0.22037055 0.16526851 0.27874798 -0.07696106
-0.26272202 0.055201296 0.27176845 0.29833335 0.28818235 0.11651196 0.107864715 -0.15403731
0.18026827 0.012258111 0.074349985 0.33084103 0.066440545 -0.21373965 0.25675952 0.19924027
-0.23329365 -0.30867067 0.32269594 0.031415258 -0.18407899 -0.14189354 -0.22793528 0.02648733
-0.21705203 0.2232399 0.27514067 0.15132406 0.23398754 0.23771477 -0.24650957 -0.16914986
0.016989281 -0.29400256 0.08725323 -0.25070122 -0.07096118 0.035123717 0.115321994 -0.104426116
-0.2791876 0.15106468 -0.30955347 -0.14522448 0.11133963 -0.23915863 0.11002411 0.22603987
-0.109373815 0.24204826 0.21262239 0.13385078 -0.22402045 -0.38751552 0.14110744 0.12818702
0.23897582 0.32023463
00000000: 4490 483e d6c6 87bd 960b 3a3e 5e6f 7dbe
00000010: 27ee 503e 5429 743d 4ca9 063e 782c 2f3e
00000020: 9de0 3c3e 1232 68be 0559 9d3c 8dc6 8c3e
00000030: ad01 b1bd 5c76 85be 067c 97be 7d77 cf3d
00000040: 2701 2a3e 7f7b 693e 3af9 303e fc15 dabd
00000050: 58ce f23d 168a 92be cf94 413e 1981 873d
00000060: 9d37 5f3d 4bb7 d7bd 623b 62be 7bc5 34bd
00000070: b63c fb3d 9e7c 19be 0bd8 4a3e e49a f0bd
00000080: 83e4 b13d 6ad0 32be 365f 0e3e d3bd f7bc
00000090: caef 6abe 4ccc 31bd 0534 1a3d 51df 37bd
000000a0: 34eb 60be 9b38 a23e 72bb 913e 949c 663e
000000b0: 63fe 3a3e aba8 013e 4f11 ab3e 8f86 803d
000000c0: e790 4c3b f3a3 893e b4b3 553e a8a5 76be
000000d0: 17fb 573e 4cfb fbbd c0fc 2fbe ce9b b53d
000000e0: 3dd3 37be 3740 8b3e a7a2 e43d a5ec 863e
000000f0: 7f15 cbbd 10b0 f8bd e391 58be 8e32 1ebe
00000100: eff7 84be ef18 683d 498a 373e 31eb aa3d
00000110: 955d ea3c bf0f c1bb 621f 91be d79f e5bd
00000120: cf0c 06be 6e5e 233d 29f9 74be cedb dd3d
00000130: ac2d 273e 179d 593e 1d64 b8bd 24db 52be
00000140: 8dcb 303e aaef 303d df23 c8bd e02e 16be
00000150: 46ef 333e 2432 8c3c 6565 963e 5f82 3d3e
00000160: 6c45 643e c196 7a3e d022 b83d d6d8 a93c
00000170: c585 b5bd 3b9a b3bd e5b1 d7be 2608 e73d
00000180: 8287 6ebe fee0 f0bd 82b3 803e 8d60 ccbd
00000190: 2d27 a2be 5e9b 39be a246 033d 4237 dbbd
000001a0: 30f4 4abe bd68 96bd 3f37 2e3d a234 d9bc
000001b0: 8c3d 263e 4fef a9be d8df 1fbe f9b6 11bd
000001c0: a927 33be 1465 40be 5418 96be 2d12 e33d
000001d0: eded 89be ede7 89bd 4b9f 94bd 281c 973e
000001e0: dd9f abb9 1b5f 95be 7d5f 1ebe 9e5c 5a3e
000001f0: ca17 21be d3d0 663e f514 953e fd79 2c3e
00000200: 4ba1 88be 37e6 31bd 7474 19be 925f d9bd
00000210: 7c51 0d3e 09b7 873e 390e 513e 059a 8ebe
00000220: 5ae8 183e 731b 92bd d8d9 2b3e 00a4 87bc
00000230: 19d3 4ebe 6401 ecbd 70bc e03d 14aa 853b
00000240: 711c 743d ffc9 cf3e 0a1c 1abd 56f0 98bd
00000250: 7be2 76bd 3d98 a0be c2ff 0e3e de6e 81be
00000260: 2fe0 46be 793c 63be 0f09 d3bc cac4 8fbe
00000270: 1684 493e 61d2 edbd 5552 af3c afff 33be
00000280: a693 f73d 2430 d43d 3a78 1f3e a3b6 90be
00000290: d05b 8abe 2a03 86bd c954 95bd f574 9ebe
000002a0: 403b 88be 9c73 01bb 8fba 41bd cae9 5bbe
000002b0: 8464 563e 97ac ad3d 0590 6ebe 8e0c 8b3d
000002c0: 3b96 9d3e 0186 723e db02 11bc 22d1 a63e
000002d0: 1a1e 523e 610a ccbe cd1b 56bd b780 54be
000002e0: b0dc 123e 57dd abbe 9728 b3bd f42a 8b3e
000002f0: d1a8 61be 263c 293e 0eb8 8e3e c39d 9dbd
00000300: 8083 86be c11a 623d 3c25 8b3e 26bf 983e
00000310: a38c 933e d39d ee3d 2de8 dc3d f5bb 1dbe
00000320: 3f98 383e 3ed6 483c ce44 983d ff63 a93e
00000330: fb11 883d 91de 5abe fc75 833e a405 4c3e
00000340: 88e4 6ebe 150a 9ebe 6738 a53e 49ad 003d
00000350: 347f 3cbe 8a4c 11be de67 69be f5fb d83c
00000360: e342 5ebe 0099 643e 3ddf 8c3e b2f4 1a3e
00000370: 6e9a 6f3e 806b 733e 016d 7cbe 9f35 2dbe
00000380: 1b2d 8b3c 8187 96be d2b1 b23d e95b 80be
00000390: 1854 91bd e3dd 0f3d f02d ec3d 5cdd d5bd
000003a0: adf1 8ebe b3b0 1a3e cb7d 9ebe bab5 14be
000003b0: 0806 e43d 00e6 74be 5254 e13d ff76 673e
000003c0: 61ff dfbd 80db 773e afb9 593e 2e10 093e
000003d0: 9e65 65be 6f68 c6be 787e 103e 7543 033e
000003e0: 14b6 743e cbf5 a33e

f.fc.0.bias f4 [50]
0.1477233 0.41016102 -0.23835552 0.46736386 0.23908545 0.42726055 0.29341745 -0.010778169
0.36695153 -0.28554627 0.34093738 0.13129082 0.35810786 -0.2876701 -0.42334673 0.005363336
-0.07386142 -0.34532377 -0.28307223 -0.30312493 0.42000085 0.39855585 -0.39426067 -0.25463063
0.18571185 0.33682844 0.31642038 -0.31948847 0.25628945 -0.054803975 -0.20377141 0.37358573
0.23440997 0.43116403 -0.03587798 0.10429523 -0.20656021 -0.06195235 0.44957364 -0.10292669
0.15021989 -0.14091183 -0.33096656 -0.42294553 0.4372164 -0.11735888 -0.31936285 -0.30569452
0.37458 0.109067574
00000000: c744 173e a000 d23e 7813 74be 514a ef3e
00000010: d1d2 743e e5c1 da3e d03a 963e eb96 30bc
00000020: 12e1 bb3e 1f33 92be 588f ae3e 1a71 063e
00000030: ea59 b73e 7f49 93be e7c0 d8be ecbe af3b
00000040: a844 97bd 47ce b0be d8ee 90be 3133 9bbe
00000050: 5a0a d73e 830f cc3e 89dc c9be f25e 82be
00000060: 3f2b 3e3e c774 ac3e da01 a23e fe93 a3be
00000070: 5f38 833e 227a 60bd 74a9 50be a146 bf3e
00000080: 2b09 703e 88c1 dc3e caf4 12bd bd98 d53d
00000090: 8584 53be bfc1 7dbd 842e e63e 3acb d2bd
000000a0: 3ed3 193e 314b 10be 7374 a9be 518c d8be
000000b0: d4da df3e da59 f0bd 8783 a3be fe83 9cbe
000000c0: f3c8 bf3e d25e df3d

f.fc.1.weight f4 [50, 50]
-0.12659468 -0.15307812 0.17379855 -0.06581516 0.1693874 -0.11960236 -0.1232119 -0.041760918
0.18769488 -0.021775628 0.1447413 -0.08774658 -0.21874888 0.1450766 0.11570873 -0.12074922
-0.12479746 0.1277755 0.073757656 -0.12982787 0.1256661 0.2043764 0.05434586 0.13845354
0.07782368 0.28780064 0.022481717 0.020927565 -0.02678202 -0.112082064 0.07748591 -0.12789927
0.097719 0.03562264 -0.28145438 -0.104768306 -0.18731222 0.08587123 -0.025426382 -0.14477824
-0.14403836 -0.16674578 0.17914836 -0.27995816 0.1109241 0.25974172 -0.10353219 0.2299636
-0.08668785 0.060937136 -0.027846705 0.2520902 -0.0076354602 -0.10732016 0.18268973 0.20304903
0.16221951 -0.089766294 -0.07547871 -0.15405472 -0.1012923 -0.12339975 0.09279514 0.1758498
0.20894693 0.19546278 0.17151657 -0.1423391 -0.0027929216 -0.15041582 0.19999535 -0.15069118
0.0035921743 -0.13556644 0.24664973 0.06755288 -0.20560284 -0.19911718 0.06419273 -0.21761192
-0.033368196 -0.1646514 0.12249532 -0.023332244 0.027069446 -0.06102225 -0.19192396 0.24104294
-0.19037305 -0.1642077 0.18905587 0.040170316 0.08572501 0.05729983 -0.062992044 -0.21029879
-0.12447097 -0.14525047 0.1896711 0.23593909 0.102663726 0.06490473 0.041795168 0.088028505
-0.051496528 0.035682328 0.020059085 -0.07197018 0.019758817 -0.06520974 -0.12851919 0.09874333
0.1544423 -0.29598415 0.0025755223 -0.13738354 0.05385413 0.16185093 -0.031838465 0.0027255458
-0.14321697 -0.013206236 0.0052747065 0.044227228 0.14128998 -0.062117044 -0.082413115 -0.029973583
0.17518717 -0.017846957 0.19849585 0.25530595 0.06231649 -0.15661888 -0.118831754 -0.17912039
0.20685956 -0.045355752 0.1810892 -0.1471865 -0.033744186 -0.010909587 0.16657002 0.09269277
0.18055086 0.02400805 -0.15921274 0.0760092 0.26440144 -0.11010573 0.11706289 -0.2822146
-0.24624673 0.040697504 -0.10763964 0.15325175 -0.13245593 0.2636119 -0.10781331 -0.0982361
0.1403794 -0.06833864 -0.14810991 0.008989541 0.1692899 -0.11130929 0.18410885 -0.16890046
0.21844524 -0.1483889 0.12812537 -0.03893963 -0.13290404 0.2802692 0.08105237 0.22654843
0.17864199 -0.011536084 -0.06579626 0.03928271 0.20346913 0.09554693 0.075910084 0.12529922
0.020709736 0.24288283 0.12774803 0.10134091 0.18169756 -0.052783396 -0.020340182 0.05338182
-0.24895424 -0.16978426 -0.18635406 0.024883846 0.15868187 0.052771635 -0.004672682 -0.1508875
0.019437015 -0.18723369 -0.026997922 -0.010950162 -0.12458192 -0.22680677 -0.09814518 -0.35336983
-2.3394494e-05 0.28446776 0.09865461 0.11226402 0.16193537 0.18184596 -0.04105915 0.083305486
-0.15021761 -0.12306142 -0.17646392 0.13929915 -0.20007344 -0.21697107 0.014339541 0.099611886
-0.02899093 0.21470731 0.07999634 0.06242164 -0.033372954 0.09969873 -0.22123347 -0.19057494
-0.2833821 0.0522009 -0.11789808 -0.11503861 0.02990017 -0.13397788 0.19764343 -0.24032922
-0.077998064 0.1682555 -0.18866354 -0.015913013 0.14792757 0.1028607 0.13471176 0.042786032
-0.10106598 0.019989867 0.1991669 0.114709266 0.15258065 -0.21416105 -0.0038804428 0.14592151
00000000: 09a2 01be 83c0 1cbe 3ff8 313e 19ca 86bd
00000010: e473 2d3e 15f2 f4bd 8556 fcbd 7f0d 2bbd
00000020: 1633 403e cd62 b2bc 1037 143e 7bb4 b3bd
00000030: b5ff 5fbe f68e 143e b3f8 ec3d 5e4b f7bd
00000040: d095 ffbd 95d7 023e 410e 973d 99f1 04be
00000050: 9dae 003e 0c48 513e c499 5e3d c4c6 0d3e
00000060: 0662 9f3d 9b5a 933e 942b b83c 4970 ab3c
00000070: f865 dbbc 488b e5bd efb0 9e3d 07f8 02be
00000080: e620 c83d 0ce9 113d ca1a 90be c490 d6bd
00000090: c6ce 3fbe 41dd af3d fd4a d0bc bf40 14be
000000a0: cb7e 13be 68bf 2abe ab72 373e ad56 8fbe
000000b0: 2d2c e33d defc 843e af08 d4bd 947b 6b3e
000000c0: 6689 b1bd 3899 793d c61e e4bc f711 813e
000000d0: e232 fabb acca dbbd 0413 3b3e 16ec 4f3e
000000e0: df1c 263e 64d7 b7bd 9594 9abd 85c0 1dbe
000000f0: 5672 cfbd 02b9 fcbd 610b be3d f811 343e
00000100: 2ff6 553e 6527 483e 0aa2 2f3e 57c1 11be
00000110: 7309 37bb 9b06 1abe 95cb 4c3e ca4e 1abe
00000120: af6a 6b3b eed1 0abe bf91 7c3e 2a59 8a3d
00000130: 8d89 52be 60e5 4bbe 7a77 833d a9d5 5ebe
00000140: 17ad 08bd 609a 28be d4de fa3d 4323 bfbc
00000150: bec0 dd3c 78f2 79bd b787 44be f6d3 763e
00000160: 27f1 42be 1026 28be dd97 413e a189 243d
00000170: 9890 af3d 3ab3 6a3d f901 81bd 9158 57be
00000180: a3ea febd 8abc 14be 2439 423e 049a 713e
00000190: 5c41 d23d c5ec 843d 6931 2b3d 4a48 b43d
000001a0: 06ee 52bd a227 123d f352 a43c 1a65 93bd
000001b0: 3edd a13c af8c 85bd 899a 03be f139 ca3d
000001c0: 1f26 1e3e 3c8b 97be 18ca 283b 45ae 0cbe
000001d0: 2696 5c3d 40bc 253e 0d69 02bd 129f 323b
000001e0: 78a7 12be f85e 58bc 72d7 ac3b 9c27 353d
000001f0: 52ae 103e 716e 7ebd 35c8 a8bd 298b f5bc
00000200: 4464 333e c833 92bc 7f42 4b3e 76b7 823e
00000210: 933f 7f3d b360 20be 105e f3bd 566b 37be
00000220: fed2 533e f4c6 39bd 726f 393e 0fb8 16be
00000230: 5837 0abd 20be 32bc 5591 2a3e b5d5 bd3d
00000240: 53e2 383e 88ac c43c aa08 23be b6aa 9b3d
00000250: a05f 873e 1d7f e1bd abbe ef3d 6f7e 90be
00000260: 1a28 7cbe 6db2 263d 2c72 dcbd 07ee 1c3e
00000270: 87a2 07be 24f8 863e 3acd dcbd 0230 c9bd
00000280: 9ebf 0f3e 21f5 8bbd 20aa 17be de48 133c
00000290: 555a 2d3e 20f6 e3bd 0887 3c3e 3ef4 2cbe
000002a0: 1cb0 5f3e 43f3 17be 4c33 033e 297f 1fbd
000002b0: ff17 08be 727f 8f3e c9fe a53d 50fc 673e
000002c0: eded 363e d801 3dbc 31c0 86bd e8e6 203d
000002d0: 365a 503e 1cae c33d bf76 9b3d 704e 003e
000002e0: 77a7 a93c 47b6 783e 61d0 023e d38b cf3d
000002f0: ed0e 3a3e 6733 58bd 74a0 a6bc e5a6 5a3d
00000300: dced 7ebe eddb 2dbe 99d3 3ebe 35d9 cb3c
00000310: 807d 223e 1227 583d 4c1d 99bb 4182 1abe
00000320: 603a 9f3c 30ba 3fbe bf2a ddbc 4f68 33bc
00000330: ce24 ffbd 0940 68be 5700 c9bd e4ec b4be
00000340: 4b3f c4b7 c2a5 913e 6e0b ca3d aeea e53d
00000350: 63d2 253e d435 3a3e a42d 28bd 119c aa3d
00000360: a5d2 19be a007 fcbd f5b2 34be 70a4 0e3e
00000370: 0de0 4cbe aa2d 5ebe 65f0 6a3c 5101 cc3d
00000380: 637e edbc 3cdc 5b3e 1fd5 a33d d5ad 7f3d
00000390: 14b2 08bd d92e cc3d 078b 62be 1426 43be
000003a0: 7517 91be 9cd0 553d 8c74 f1bd 5d99 ebbd
000003b0: 34f1 f43c 7f31 09be 0a63 4a3e dd18 76be
000003c0: 73bd 9fbd 2b4b 2c3e 0431 41be 025c 82bc
000003d0: 537a 173e a1a8 d23d e1f1 093e 6840 2f3d
000003e0: aefb cebd cac1 a33c 68f2 4b3e b1ec ea3d
000003f0: 1a3e 1c3e 094d 5bbe 074f 7ebb 736c 153e

f.fc.1.bias f4 [50]
-0.093114905 0.11772351 -0.011962562 -0.0030341821 -0.03437094 -0.029867014 -0.11974166 0.036227576
0.044346765 -0.049921587 0.13973132 -0.081306905 -0.111262836 0.03794711 -0.062174533 -0.08995103
-0.06959628 -0.105396435 -0.024441393 -0.095261015 0.034523536 -0.056798354 0.13395612 0.15178573
-0.022921508 0.121719584 0.13245232 0.10799051 -0.077252254 0.083674155 0.010914544 -0.099711895
-0.009480743 0.08763093 0.12268958 -0.046960942 0.18309733 -0.05211728 0.055721335 -0.061472673
-0.039289054 0.08387786 0.12750363 -0.12515073 -0.02100274 -0.036150362 -0.094154336 0.06898554
-0.03812089 -0.04572537
00000000: 07b3 bebd 0619 f13d 9ffe 43bc 21d9 46bb
00000010: 8bc8 0cbd abab f4bc 1e3b f5bd 5e63 143d
00000020: f4a4 353d 947a 4cbd ba15 0f3e 3c84 a6bd
00000030: c5dd e3bd 6e6e 1b3d b9aa 7ebd 3f38 b8bd
00000040: 7f88 8ebd 16da d7bd 5139 c8bc 3518 c3bd
00000050: 8d68 0d3d 64a5 68bd cb2b 093e b86d 1b3e
00000060: e3c5 bbbc 1e48 f93d 95a1 073e 212a dd3d
00000070: 6e36 9ebd 5b5d ab3d ead2 323c c035 ccbd
00000080: 1e55 1bbc d877 b33d ad44 fb3d 1e5a 40bd
00000090: de7d 3b3e ee78 55bd 0e3c 643d c5ca 7bbd
000000a0: 8fed 20bd 28c8 ab3d 5090 023e 8327 00be
000000b0: f00d acbc 6712 14bd fdd3 c0bd 4a48 8d3d
000000c0: a624 1cbd 874a 3bbd

f.fc.2.weight f4 [5, 50]
-0.14891851 -0.22195107 -0.1283147 0.23143268 -0.0750763 -0.07566359 -0.044779986 0.12486024
0.08701324 0.17668478 -0.23945335 0.2660247 0.25391856 0.10752353 -0.24901941 -0.23813288
0.3125061 0.014877009 -0.021171391 0.053061545 -0.27455518 0.11111149 -0.014193874 -0.23800494
0.036071166 -0.28841335 -0.25084248 0.2166545 -0.01586138 -0.26475662 0.1848865 0.13672261
-0.18296997 0.18800098 -0.039285965 0.21166213 -0.16475618 -0.23173682 0.10364212 -0.13243009
-0.2719714 -0.29865372 -0.010581695 0.34231812 0.28968295 0.008694037 -0.12481597 0.17420846
0.14640073 -0.07086 0.12936033 0.27515408 0.1948669 -0.027083576 -0.08395735 0.21190484
-0.24725558 0.11207526 -0.07378111 0.077701606 -0.28226867 0.07360594 -0.18772699 -0.105277576
0.026454743 0.24639522 -0.17674153 -0.10638841 -0.29751515 0.24636783 0.024729718 -0.12158567
-0.13626388 -0.26329193 -0.3247828 0.11698837 0.23082465 -0.29723892 0.3126325 -0.09639058
0.09478729 0.21310873 -0.18865049 0.19747001 -0.13373125 -0.14015849 0.25565246 -0.25088227
0.28271696 -0.14785257 0.1922865 0.20556988 0.0025704803 0.082836084 -0.37346944 0.071188755
-0.08864295 -0.101192206 -0.15985025 -0.06357451 -0.04514538 0.07484326 -0.14167978 0.2607712
0.05966375 0.19128242 -0.2539565 0.21214646 0.029756168 0.32316568 -0.07169912 -0.095963806
-0.2587249 0.31141102 -0.09877275 -0.0849195 -0.019252732 -0.25830796 0.09086157 -0.231027
-0.09860614 -0.18276215 0.24171536 -0.045335356 -0.19918172 0.1714544 -0.0784071 0.09030703
0.21103051 0.15015689 0.24481444 0.15483713 -0.17485397 0.12062984 0.1895473 -0.02511861
-0.32417 0.13985938 -0.28935522 -0.017637873 -0.22123864 0.1075972 0.17412509 -0.09411815
-0.00094118476 -0.16184497 -0.2807278 -0.23018235 0.10581459 -0.0024597668 -0.13765019 0.30961177
0.12091768 0.060413007 -0.27570826 -0.26741967 0.19320355 -0.17689505 -0.16936488 0.083133206
0.13479735 -0.32521212 0.14018549 0.27070507 -0.05918662 0.038952556 -0.14779681 -0.19069959
-0.17122221 -0.14963196 -0.16373536 0.2878919 -0.269739 0.23013254 -0.1342992 -0.09421485
0.25413904 0.1155206 -0.13133879 -0.16073823 -0.17609593 -0.03467717 -0.17828517 -0.049181487
-0.1950729 0.2988028 0.17861104 -0.22322622 0.016420877 -0.29590383 -0.06091697 -0.014462327
-0.1471473 -0.1874393 -0.07723083 -0.1680569 -0.026564462 0.3366185 0.12159962 0.19340417
-0.30038193 -0.08574168 -0.183583 0.0037404946 -0.124304146 0.23927255 0.16221341 0.07308367
0.2773413 -0.17572586 -0.052386835 -0.116203874 -0.21748954 -0.26272175 -0.19571579 0.13486503
-0.07077281 0.07859792 0.0068171667 0.12889422 -0.098206125 -0.31882033 0.10888238 -0.06492728
0.2190187 0.31950322 -0.09929015 0.024059162 -0.27729645 0.06029791 0.16076273 0.14316288
-0.03911459 0.24344397 0.08003769 0.19981684 -0.07229512 -0.32798126 -0.32197264 0.027350936
0.25627968 -0.18470253 -0.1822157 0.17647098 0.19717824 -0.23222454 0.06734861 0.30849582
0.15188845 0.28764734
00000000: 187e 18be 2447 63be ee64 03be b0fc 6c3e
00000010: 9ac1 99bd 83f5 9abd 386b 37bd bab6 ff3d
00000020: ff33 b23d dbec 343e 4233 75be 6434 883e
00000030: 9d01 823e 4c35 dc3d f2fe 7ebe 1bd9 73be
00000040: cd00 a03e b3be 733c a06f adbc 1057 593d
00000050: 7f92 8cbe 6c8e e33d 6c8d 68bc 91b7 73be
00000060: 5cbf 133d eaaa 93be 6d6e 80be adda 5d3e
00000070: baef 81bc 2e8e 87be e352 3d3e 0301 0c3e
00000080: 7b5c 3bbe 5483 403e 52ea 20bd f5bd 583e
00000090: d8b5 28be 6b4c 6dbe 5242 d43d c19b 07be
000000a0: d63f 8bbe 24e9 98be d85e 2dbc 5244 af3e
000000b0: 5351 943e 6f71 0e3c 849f ffbd b463 323e
000000c0: 13ea 153e 0c1f 91bd 0977 043e ffe0 8c3e
000000d0: 308b 473e 60de ddbc d5f1 abbd 95fd 583e
000000e0: 9130 7dbe b787 e53d 8d1a 97bd 0522 9f3d
000000f0: 8585 90be b6be 963d 813b 40be c59b d7bd
00000100: 9eb7 d83c 074f 7c3e bbfb 34be 2be2 d9bd
00000110: e853 98be d947 7c3e fa95 ca3c e801 f9bd
00000120: c288 0bbe 33ce 86be ee49 a6be 9997 ef3d
00000130: 4c5d 6c3e b32f 98be 5e11 a03e 6d68 c5bd
00000140: d71f c23d 2d39 5a3e 982d 41be 9435 4a3e
00000150: d8f0 08be b585 0fbe e1e4 823e a473 80be
00000160: 47c0 903e aa66 17be c1e6 443e e980 523e
00000170: 8175 283b f7a5 a93d 6337 bfbe 69cb 913d
00000180: 6f8a b5bd dc3d cfbd c9af 23be 5a33 82bd
00000190: 5dea 38bd 6c47 993d 8114 11be cd83 853e
000001a0: fa61 743d 8adf 433e 9606 82be ec3c 593e
000001b0: 35c3 f33c f975 a53e fdd6 92bd ac88 c4bd
000001c0: 9777 84be 4471 9f3e 5e49 cabd 46ea adbd
000001d0: e8b7 9dbc f140 84be a115 ba3d 5892 6cbe
000001e0: 04f2 c9bd 0026 3bbe 3b84 773e 91b1 39bd
000001f0: 4bf6 4bbe be91 2f3e e793 a0bd e4f2 b83d
00000200: 6218 583e bac2 193e a3b0 7a3e a08d 1e3e
00000210: eb0c 33be c70c f73d b018 423e 8bc5 cdbc
00000220: 9cf9 a5be 4c37 0f3e 5e26 94be 4d7d 90bc
00000230: 628c 62be ec5b dc3d d94d 323e 04c1 c0bd
00000240: d7b9 76ba b0ba 25be 8ebb 8fbe ecb4 6bbe
00000250: 52b5 d83d 0a34 21bb 2cf4 0cbe 6f85 9e3e
00000260: b0a3 f73d a173 773d a229 8dbe 3beb 88be
00000270: 27d7 453e fa23 35be fd6d 2dbe be41 aa3d
00000280: 5108 0a3e 3482 a6be c98c 0f3e db99 8a3e
00000290: ab6d 72bd b78c 1f3d 0c58 17be c146 43be
000002a0: e054 2fbe 1f39 19be 3eaa 27be 9166 933e
000002b0: 3b1b 8abe dda7 6b3e bb85 09be b7f3 c0bd
000002c0: 831e 823e 1096 ec3d ad7d 06be 9098 24be
000002d0: 7e52 34be a609 0ebd 6390 36be 8772 49bd
000002e0: 31c1 47be aefc 983e d0e5 363e 6a95 64be
000002f0: 1385 863c b580 97be 1384 79bd 65f3 6cbc
00000300: c8ad 16be 16f0 3fbe 332b 9ebd 1c17 2cbe
00000310: b79d d9bc 4359 ac3e 3909 f93d be0b 463e
00000320: a9cb 99be 5599 afbd 2ffd 3bbe 1623 753b
00000330: 2c93 febd dd03 753e 461b 263e e4ac 953d
00000340: aeff 8d3e 7bf1 33be 9493 56bd 4cfc edbd
00000350: 94b5 5ebe 7783 86be b869 48be 0f1a 0a3e
00000360: 56f1 90bd f2f7 a03d 8a62 df3b d9fc 033e
00000370: 4b20 c9bd 6b3c a3be bafd de3d 98f8 84bd
00000380: 7046 603e ed95 a33e a258 cbbd b817 c53c
00000390: cdf9 8dbe f1fa 763d fc9e 243e 4a99 123e
000003a0: 9f36 20bd 6049 793e cdea a33d c99c 4c3e
000003b0: 770f 94bd 29ed a7be 99d9 a4be 120f e03c
000003c0: 1737 833e a922 3dbe c196 3abe cfb4 343e
000003d0: 18e9 493e 45cc 6dbe 11ee 893d 2af3 9d3e
000003e0: a588 1b3e 8346 933e

f.fc.2.bias f4 [5]
-0.08989569 -0.11167937 0.010088622 -0.030303704 -0.037833773
00000000: 3b1b b8bd 27b8 e4bd bf4a 253c 793f f8bc
00000010: 96f7 1abd

g.fc.0.weight f4 [50, 45]
-0.08114224 -0.005055494 -0.010173527 0.17530145 -0.19584782 0.04384216 -0.21248654 0.355145
-0.12458528 -0.09375216 0.1291937 -0.15300019 -0.0064811665 -0.0692255 -0.12301125 0.17932357
0.02400981 -0.22864816 -0.15736656 0.019013407 -0.030931003 0.19766113 -0.11214452 0.13897921
-0.2089939 -0.026687399 -0.048181463 0.15470715 -0.20283903 -0.1682728 0.16388783 0.16487943
0.0035766703 0.02791751 0.10852058 -0.08862008 0.18218003 0.1917894 0.05781515 0.20944731
0.1253014 -0.106747195 0.15280294 -0.014827636 -0.2792728 -0.27511963 0.031727266 -0.19345483
-0.15602532 -0.07369769 0.14029144 0.15678814 -0.14013438 0.12807088 -0.014450126 -0.26157793
0.1955691 0.03028075 0.059509512 -0.068842016 -0.15713522 -0.028530458 -0.13031961 0.13591188
-0.055713024 -0.20328146 0.15456957 -0.03556838 -0.10791411 -0.19330546 0.17788418 0.12657064
0.052130938 -0.13758115 0.0024864585 -0.07993447 0.0061930246 -0.13156556 -0.05570849 -0.22276114
0.09323535 -0.12263174 -0.24612856 -0.15332194 -0.24391882 0.02578817 0.13573898 0.032471787
0.058124885 0.048271094 0.22977102 -0.08266858 0.037402935 -0.18688197 -0.15874453 0.0388656
0.20691834 0.19239053 -0.05858396 -0.14364043 -0.16908066 0.22940563 0.10548818 -0.12971745
-0.17855315 0.19899382 0.20721151 0.22938287 0.22652 -0.041888792 -0.106358044 0.18889795
0.21807611 -0.13325611 0.2417286 0.042275194 0.022307273 0.20108354 0.21820128 0.091127135
0.032527287 0.1622594 0.14317633 0.22187498 0.19375797 -0.12151657 0.041440953 0.08927602
0.04946739 0.2021297 0.029531376 -0.085953586 0.20341562 0.20781747 0.04581891 -0.20443314
-0.1418106 -0.23633166 -0.1863909 -0.16316023 0.2092427 0.081046976 -0.12315239 0.07181144
0.019319449 -0.056186467 -0.035715055 0.15186276 0.18192805 0.14954305 0.15979102 -0.122789286
-0.01996483 0.25942203 0.15871482 -0.01953257 -0.13492545 -0.09304604 0.2005794 -0.15446484
0.20706199 0.003257352 0.16764496 0.23440154 0.17054892 0.006855586 0.060301147 0.16653411
0.19547717 -0.0616778 0.25193617 -0.1906433 -0.17634854 -0.18690272 0.0363885 -0.007933745
-0.18919154 0.17157985 -0.13830008 0.15280043 -0.20196904 0.0446271 0.104531296 -0.25033298
-0.3040325 -0.12290971 0.14385132 0.23774639 -0.26146036 -0.22948316 0.15371002 -0.039975442
-0.06992081 0.06664927 0.19608667 -0.08604623 -0.11586476 -0.005057603 -0.06814515 -0.013301876
0.14137775 -0.16623652 0.06702809 0.16796122 -0.005706057 0.027708484 -0.21145982 0.117676795
-0.068576716 -0.16133961 -0.18311535 -0.17948444 -0.17139158 0.26047635 0.11402643 -0.07897158
0.10161808 -0.026990864 -0.092693724 -0.02324143 -0.087971434 0.2354214 -0.022059528 0.22395365
0.07316831 0.12049993 -0.2617271 -0.06688673 -0.18996558 -0.22073439 -0.19015078 -0.1133197
-0.030214475 0.15251726 0.04597822 -0.013037816 0.093250774 0.2407829 0.025221286 -0.13386458
-0.066333376 0.027521217 0.18756332 0.13843656 0.17043418 0.035901062 -0.12388082 0.026618468
-0.10874367 0.049235575 -0.11713098 -0.012265119 0.05103913 0.057953686 -0.11551123 -0.06057307
00000000: e72d a6bd 8fa8 a5bb ddae 26bc 3982 333e
00000010: 558c 48be d693 333d 1296 59be 91d5 b53e
00000020: 9126 ffbd 2201 c0bd 5a4b 043e 15ac 1cbe
00000030: f75f d4bb 19c6 8dbd 52ed fbbd 99a0 373e
00000040: 39b0 c43c be22 6abe b324 21be 01c2 9b3c
00000050: 0463 fdbc ae67 4a3e 07ac e5bd 9150 0e3e
00000060: 7f02 56be 889f dabc ed59 45bd 8d6b 1e3e
00000070: 09b5 4fbe b44f 2cbe 36d2 273e 27d6 283e
00000080: 9266 6a3b 43b3 e43c 0a40 de3d 727e b5bd
00000090: 678d 3a3e 7164 443e 94cf 6c3d 5b79 563e
000000a0: 034f 003e 469e dabd 6078 1c3e 9def 72bc
000000b0: d8fc 8ebe 7bdc 8cbe 73f4 013d 0619 46be
000000c0: 1ac5 1fbe d1ee 96bd 8fa8 0f3e 128d 203e
000000d0: 637f 0fbe 0325 033e 39c0 6cbc 8bed 85be
000000e0: 4443 483e 560f f83c 3fc0 733d 0bfd 8cbd
000000f0: 0ee8 20be b5b8 e9bc 8172 05be 7c2c 0b3e
00000100: 5733 64bd 0429 50be 7c47 1e3e 26b0 11bd
00000110: 1302 ddbd def1 45be 4527 363e bc9b 013e
00000120: 4087 553d 13e2 0cbe daf3 223b afb4 a3bd
00000130: dbee ca3b 1fb9 06be 962e 64bd 7f1b 64be
00000140: 2df2 be3d 5a26 fbbd 2009 7cbe 6d00 1dbe
00000150: dbc5 79be b641 d33c 29ff 0a3e 2301 053d
00000160: 5c14 6e3d e9b7 453d 1849 6b3e 254e a9bd
00000170: d233 193d fd5d 3fbe ed8d 22be 8931 1f3d
00000180: 67e2 533e 0602 453e bcf5 6fbd 7a16 13be
00000190: 7b23 2dbe 4fe9 6a3e 300a d83d a7d4 04be
000001a0: a3d6 36be 09c5 4b3e 412f 543e 58e3 6a3e
000001b0: dcf4 673e 9593 2bbd 3fd2 d9bd 776e 413e
000001c0: 584f 5f3e 4a74 08be b487 773e c128 2d3d
000001d0: bebd b63c d8e8 4d3e 2870 5f3e dda0 ba3d
000001e0: 553b 053d 5427 263e d19c 123e 3233 633e
000001f0: 7d68 463e aedd f8bd fdbd 293d 59d6 b63d
00000200: 519e 4a3d 17fb 4e3e c9eb f13c 6f08 b0bd
00000210: 2f4c 503e 1ace 543e 9cac 3b3d ec56 51be
00000220: cc36 11be ed00 72be 42dd 3ebe 7a13 27be
00000230: b843 563e f5fb a53d 5237 fcbd e011 933d
00000240: d243 9e3c c823 66bd f349 12bd e981 1b3e
00000250: 594b 3a3e d021 193e 42a0 233e f378 fbbd
00000260: 488d a3bc f7d2 843e 2386 223e c502 a0bc
00000270: e629 0abe ec8e bebd b064 4d3e 082c 1ebe
00000280: 0f08 543e 4c79 553b 1fab 2b3e f506 703e
00000290: 60a4 2e3e d3a4 e03b 56fe 763d eb87 2a3e
000002a0: 2b2b 483e dca1 7cbd c7fd 803e ff37 43be
000002b0: b694 34be 6d63 3fbe 1c0c 153d 8afc 01bc
000002c0: 6dbb 41be a1b2 2f3e 899e 0dbe b777 1c3e
000002d0: f9d0 4ebe e8ca 363d 8114 d63d a52b 80be
000002e0: 26aa 9bbe 16b8 fbbd c34d 133e ca73 733e
000002f0: 22de 85be a2fd 6abe 2966 1d3e 4abd 23bd
00000300: a432 8fbd 6a7f 883d f2ca 483e 0139 b0bd
00000310: 814a edbd 40ba a5bb af8f 8bbd 1df0 59bc
00000320: 54c5 103e e839 2abe 0646 893d 07fe 2b3e
00000330: e0f9 babb e7fc e23c ec88 58be 8800 f13d
00000340: f371 8cbd 3636 25be 9782 3bbe c5ca 37be
00000350: 4681 2fbe 285d 853e b086 e93d dabb a1bd
00000360: 241d d03d f21b ddbc 35d6 bdbd d064 bebc
00000370: 5e2a b4bd 4f12 713e 2fb6 b4bc 1b54 653e
00000380: 44d9 953d abc8 f63d 1801 86be e9fb 88bd
00000390: 5686 42be 3208 62be e3b6 42be 2914 e8bd
000003a0: 5984 f7bc 7c2d 1c3e a853 3c3d 909c 55bc
000003b0: 43fa be3d cb8f 763e df9c ce3c cc13 09be
000003c0: cbd9 87bd 2d74 e13c 9910 403e 50c2 0d3e
000003d0: 4c86 2e3e fe0c 133d 3ab5 fdbd f90e da3c
000003e0: 00b5 debd 3eab 493d 5ee2 efbd a3f3 48bc
000003f0: 680e 513d d860 6d3d 2791 ecbd 781b 78bd

g.fc.0.bias f4 [50]
0.023648052 -0.034150857 -0.06945654 0.0020043657 -0.00030549514 -0.10644901 -0.023892494 -0.092124216
0.008284986 -0.049400914 -0.018379604 0.04999131 0.10240965 0.20658816 -0.11753064 0.15181245
0.09498134 0.14582211 0.073705755 0.11181729 0.06275779 0.086905375 -0.094928615 -0.1387163
-0.078322545 -0.048889074 0.10987339 -0.113794036 -0.00660609 0.07157997 0.12976049 0.18577485
-0.057418995 0.15596111 -0.014997112 -0.08344265 0.13251993 -0.0827716 -0.125649 0.077248774
-0.071380444 0.30613747 0.10161059 0.08901052 0.010786827 0.16716783 -0.06337519 -0.07697254
0.021658067 0.2080401
00000000: 8fb9 c13c c5e1 0bbd 3b3f 8ebd ad5b 033b
00000010: dd2a a0b9 f001 dabd 31ba c3bc 9fab bcbd
00000020: c0bd 073c 9d58 4abd d390 96bc b0c3 4c3d
00000030: 27bc d13d d98b 533e e7b3 f0bd b974 1b3e
00000040: 9485 c23d 6452 153e 0bf3 963d 7700 e53d
00000050: 2887 803d 72fb b13d ef69 c2bd a50b 0ebe
00000060: 9267 a0bd e93f 48bd 4d05 e13d d90c e9bd
00000070: e677 d8bb 8598 923d efdf 043e c33b 3e3e
00000080: 2e30 6bbd 45b4 1f3e 72b6 75bc fbe3 aabd
00000090: 4eb3 073e 2884 a9bd 22aa 00be 9b34 9e3d
000000a0: e92f 92bd 0dbe 9c3e 3719 d03d 264b b63d
000000b0: 3bbb 303c 0b2e 2b3e daca 81bd c7a3 9dbd
000000c0: 426c b13c 7708 553e
